forecasting/raw_ndvi_pred/models/model-2.pt (torch_old, 122990 bytes, 15 tensors)

egru.weight_ih_l0 f4 [192, 1]
0	0x3d394b98	0.045238107
1	0x3d5da21c	0.054109678
2	0x3da1a204	0.0789223
3	0x3de5022e	0.11182056
4	0x3db756d0	0.08952105
5	0xbda97936	-0.08275072
6	0x3dec2a06	0.11531453
7	0xbd902df2	-0.070400134
8	0x3d866698	0.06562537
9	0xbd827ffc	-0.06372067
10	0x3d7aa42c	0.061191723
11	0xbdef7240	-0.11691713
12	0x3d6d8888	0.057991534
13	0xbc4a5670	-0.01234971
14	0x3d0f87b0	0.03504151
15	0x3d00f1f0	0.03148073
16	0xbca545d8	-0.020174906
17	0x3de29eb0	0.110654235
18	0x3d2d2d64	0.042279616
19	0x3d3390b0	0.043839157
20	0xbdc23efe	-0.09484671
21	0xbdd9a39a	-0.10626908
22	0xbba93700	-0.005164027
23	0x3da693f2	0.08133687
24	0xbd3547a8	-0.04425779
25	0xbd949b36	-0.07256167
26	0xbd213e68	-0.039366156
27	0x3c7dc530	0.015488908
28	0xbdf38956	-0.11891429
29	0xbd00d688	-0.031454593
30	0xbdc7f3ce	-0.09763299
31	0xbd6a83d0	-0.057254612
32	0xbda1395e	-0.0787227
33	0xbdcf041a	-0.10108204
34	0xbcc95080	-0.024574518
35	0x3c850d98	0.016241834
36	0xbdbfd372	-0.09366502
37	0xbd773df0	-0.060361803
38	0xbd7be198	-0.06149444
39	0x3ae01b80	0.0017098039
40	0xbde5552a	-0.111978844
41	0xbca280d0	-0.019836813
42	0xbdfc26e2	-0.12312104
43	0xbd3252a4	-0.043535843
44	0xbc659d70	-0.014014587
45	0x3dec94c8	0.11551815
46	0x3d53c244	0.051698938
47	0x3da4868a	0.08033474
48	0x3d937df2	0.072017565
49	0x3d462154	0.048371628
50	0x3cf6baf0	0.030118436
51	0x3d4d9dd4	0.050199345
52	0xbd8a5190	-0.06753838
53	0x3d2fed0c	0.042950675
54	0xbdad00a8	-0.08447391
55	0xbd594c44	-0.05305125
56	0xbd0ad7dc	-0.033897266
57	0xbcd24620	-0.025668204
58	0xbd4dfb38	-0.05028841
59	0xbdac9796	-0.0842735
60	0x3d254eb4	0.04035826
61	0x3dbc7626	0.092022225
62	0x3d6b0474	0.057377294
63	0x3dff78a0	0.12474179
64	0xbc381800	-0.011236191
65	0x3d0f2e28	0.034956127
66	0xbcd90970	-0.026493758
67	0xbdd1d638	-0.10245937
68	0xbdb00926	-0.08595495
69	0x3d227420	0.039661527
70	0x3c46a870	0.01212512
71	0x3df49a58	0.11943501
72	0x3cba3778	0.022731528
73	0xbdd12d92	-0.1021377
74	0x3bcc6ce0	0.006238565
75	0xbd61e738	-0.055152148
76	0xbd9627c0	-0.073318005
77	0xbdc4cf5a	-0.09609862
78	0xbdcbcd78	-0.099512994
79	0x3d88bb5e	0.066763625
80	0x3c23ee60	0.0100055635
81	0xbd8827ba	-0.06648202
82	0x3de46fc4	0.1115413
83	0xbdbae5b0	-0.09125841
84	0x3cff3130	0.031151384
85	0x3b933ec0	0.0044935644
86	0x3d93671c	0.07197401
87	0xbda83f9c	-0.082152575
88	0xbd38e484	-0.045139804
89	0x3cd70188	0.026245847
90	0x3ca96e80	0.020682573
91	0x3d9d8754	0.076918274
92	0x3d9f3ea8	0.077756226
93	0xbd9cd3c0	-0.076575756
94	0xbcda5c50	-0.026655346
95	0x3c867258	0.016411945
96	0xbde328b4	-0.11091748
97	0xbd240ac0	-0.040049314
98	0x3d1f6270	0.038912237
99	0xbd5e15f0	-0.05422014
100	0x3dd861e0	0.10565543
101	0x3d8e4160	0.06946063
102	0x3d7f8f90	0.06239277
103	0xbc45e350	-0.012078121
104	0x3d011ee8	0.031523615
105	0x3d05fabc	0.032709822
106	0x3ba94060	0.005165145
107	0xbdde8b68	-0.108664334
108	0xbddaf3ea	-0.10691054
109	0x3d722a78	0.059122533
110	0xbc196330	-0.009362027
111	0xbcb9e3f8	-0.022691712
112	0xbb88ad60	-0.0041710585
113	0x3db6297e	0.08894633
114	0x3d2a2ebc	0.041548476
115	0xbdd6f8cc	-0.10496673
116	0xbb667c80	-0.0035169423
117	0x3d9abf18	0.075559795
118	0xbd32ad18	-0.043622106
119	0xbdfe8090	-0.12426865
120	0x3db9cab0	0.09071863
121	0xbcf26ed8	-0.02959387
122	0x3cef0f18	0.029182002
123	0xbd5e6a50	-0.054300606
124	0xbddf27f6	-0.10896294
125	0x3de568dc	0.11201641
126	0x3dc1651c	0.09443113
127	0x3c01e4d0	0.007928088
128	0xbc7247d0	-0.014787629
129	0xbdd547f0	-0.104141116
130	0xbca209c8	-0.019780055
131	0xbc186960	-0.009302467
132	0x3b98f280	0.00466758
133	0x3db7d2d6	0.08975761
134	0xbd0e5b78	-0.0347552
135	0xbd8a240e	-0.06745158
136	0xbc0e1460	-0.00867185
137	0x3dfe8db8	0.124293745
138	0xbbc79260	-0.0060904473
139	0xbdc86cc6	-0.09786372
140	0x3df20906	0.11818127
141	0xbcd90520	-0.026491702
142	0x3c11ef40	0.008907139
143	0xbd69b3d8	-0.057056278
144	0xbdd6d52a	-0.104898766
145	0xbae2c100	-0.001729995
146	0x3de0e4a0	0.10981107
147	0x3d47174c	0.048606202
148	0x3d727720	0.059195638
149	0xbd2db10c	-0.042405173
150	0xbde0df30	-0.1098007
151	0x3df59e96	0.119931385
152	0xbdfe8166	-0.124270245
153	0xbd34648c	-0.0440412
154	0x3d601f3c	0.054717287
155	0xbd682e54	-0.056684807
156	0xbda10810	-0.07862866
157	0x3cb9f918	0.022701785
158	0xbd8ff21c	-0.070286006
159	0x3d0ae424	0.033908978
160	0x3c016eb0	0.007899925
161	0xbce60208	-0.02807714
162	0x3ded2faa	0.11581357
163	0x3dd78032	0.10522498
164	0x3d04b3cc	0.03239803
165	0x3db9c418	0.09070605
166	0x3d81adc6	0.06331973
167	0xbdc18a2a	-0.09450181
168	0xbdfe3420	-0.12412286
169	0xbdce9598	-0.100871265
170	0xbda32ebe	-0.079679
171	0xbd83e5b4	-0.06440297
172	0xbda781c6	-0.08179049
173	0xbb9c4980	-0.004769504
174	0x3df2981e	0.1184542
175	0x3dd09ba4	0.10185936
176	0x3dc9dd20	0.09856629
177	0x3dd27456	0.102760956
178	0xbc899a00	-0.016797066
179	0x3c9d8770	0.01922962
180	0x3d41ac50	0.04728347
181	0x3ddda09c	0.108216494
182	0x3dd92e56	0.10604541
183	0x3c8853a0	0.016641438
184	0x3daf24a4	0.085519105
185	0x3da5ac8a	0.0808955
186	0x3d0e92b0	0.03480786
187	0xbd4b3834	-0.049614146
188	0xbdba74d6	-0.09104316
189	0xbd5a9908	-0.0533686
190	0xbdc6cdee	-0.09707247
191	0x3cd32fd8	0.02577965

egru.weight_hh_l0 f4 [192, 64]
0	0xbaba8180	-0.0014229268
1	0xbddf89f8	-0.10914987
2	0x3cac6de8	0.021048501
3	0x3d15703c	0.03648399
4	0xbccd4550	-0.025057465
5	0x3de3b358	0.111181915
6	0xbdd83914	-0.10557762
7	0xbd82bf72	-0.063841715
8	0x3d933c06	0.07189183
9	0x3dd08b54	0.10182825
10	0x3dec18da	0.115281776
11	0x3dc97c56	0.09838168
12	0xbc82a190	-0.01594618
13	0xbdc14b62	-0.09438206
14	0xbdfa7f02	-0.12231256
15	0xbd8bb4a8	-0.06821567
16	0xbdfff6f2	-0.12498273
17	0xbd97c6a2	-0.07410933
18	0x3cf48d80	0.029852629
19	0xbd0d5dec	-0.0345134
20	0x3dfd2002	0.12359621
21	0xbdb3eefe	-0.087858185
22	0xbd61e3a8	-0.05514875
23	0x3d4b27fc	0.04959868
24	0xbbb3b720	-0.0054844767
25	0x3df49de4	0.11944178
26	0xbd167e5c	-0.0367416
27	0x3df02710	0.117262006
28	0xbb2d86c0	-0.0026478022
29	0xbce18ce0	-0.027532995
30	0x3d787b24	0.06066431
31	0x3ba3f780	0.0050038695
32	0xbd572e80	-0.05253458
33	0x3d71c4ec	0.05902569
34	0xbd662214	-0.056184843
35	0xbc158770	-0.009126529
36	0x3def5daa	0.11687787
37	0x3de0355a	0.10947676
38	0x3d8f9d54	0.0701243
39	0xbdda8c62	-0.10671307
40	0xbd94ab32	-0.072592154
41	0xbda30600	-0.07960129
42	0xbc603f20	-0.013686925
43	0x3daea890	0.085282445
44	0x3d969534	0.07352677
45	0x3dc10778	0.09425253
46	0x3d811966	0.063036725
47	0xbcb5f618	-0.022212073
48	0x3d002f5c	0.031295165
49	0xbaf23280	-0.0018478185
50	0xbdb3456e	-0.08753477
51	0xbdc73b22	-0.097280756
52	0x3da2f4f2	0.07956876
53	0xbdc3b902	-0.09556772
54	0xbc1b43a0	-0.009476572
55	0xbd8a9e0c	-0.06768426
56	0xbd1c7e9c	-0.03820668
57	0xbda79d1e	-0.081842646
58	0xbd56d55c	-0.05244957
59	0xbdfa8b70	-0.12233627
60	0x3baaa2a0	0.0052073747
61	0x3dc0762a	0.09397538
62	0x3d5f02a0	0.054445863
63	0x3cfadc60	0.030622661
64	0x3cc1a7c0	0.02363956
65	0xbd487ec0	-0.048949003
66	0x3d3124ac	0.043247864
67	0xbd3bfa8c	-0.045893237
68	0x3d3d167c	0.04616402
69	0x3d5f25c4	0.054479375
70	0x3de95a40	0.11394167
71	0x3d8c3664	0.06846312
72	0xbde94016	-0.113891765
73	0xbdae46be	-0.08509587
74	0x3d6e96b8	0.058249205
75	0xbd3124a0	-0.04324782
76	0x3d9b51f4	0.07583991
77	0x3df93262	0.12167813
78	0x3d3568cc	0.044289395
79	0xbdadb29a	-0.08481331
80	0xbdd1d676	-0.10245983
81	0xbd1090a8	-0.035294205
82	0x3dafe60a	0.08588798
83	0xbc9061e0	-0.017624795
84	0xbd2d9ad4	-0.042383984
85	0xbd9a68d0	-0.07539523
86	0x3dc46df2	0.09591283
87	0x3dfd730e	0.123754606
88	0xbd930906	-0.071794555
89	0x3de2e3f4	0.11078635
90	0xbd9eebc8	-0.077598155
91	0x3d99279a	0.074782565
92	0xbdd0e80e	-0.10200511
93	0x3d941476	0.07230465
94	0x3c8eef40	0.017448068
95	0x3da99004	0.08279422
96	0x3c970e78	0.018439516
97	0xbd471d10	-0.0486117
98	0xbcadffc8	-0.02124013
99	0x3dc9bc00	0.09850311
100	0x3d81fa1c	0.06346533
101	0x3d9b58ce	0.075852975
102	0x3cde8eb0	0.027167648
103	0xbc63fa20	-0.013914615
104	0xbdf2eb48	-0.118612826
105	0x3b98e2e0	0.0046657175
106	0xbdadc7f8	-0.08485407
107	0x3d86ff6a	0.06591685
108	0x3dc426da	0.09577723
109	0x3bfa1140	0.007631451
110	0x3dca82f0	0.098882556
111	0xbd4b4ab4	-0.04963179
112	0xbdef9ccc	-0.116998285
113	0x3c871428	0.016489103
114	0xbd9b5046	-0.0758367
115	0x3dd492b4	0.10379544
116	0xbdf40d88	-0.119166434
117	0x3c8c19b8	0.017102107
118	0xbce21b18	-0.02760081
119	0x3c37f810	0.011228576
120	0x3dca5ba2	0.09880759
121	0xbdd48e1c	-0.10378668
122	0xbd029540	-0.031880617
123	0xbd8cc582	-0.06873609
124	0x3d875c3e	0.06609391
125	0xbd0eaa90	-0.03483063
126	0x3cbceee8	0.023063138
127	0x3d93aae4	0.07210329
128	0xbd59b218	-0.05314836
129	0xbd5d3c1c	-0.054012403
130	0xbd31bcfc	-0.04339312
131	0x3dbb9fe4	0.09161356
132	0xbd8ee908	-0.06978041
133	0xbce26e30	-0.027640432
134	0x3d90e748	0.070753634
135	0x3d5464dc	0.051854
136	0x3dd6c958	0.10487622
137	0x3d217f44	0.03942801
138	0x3df02078	0.11724943
139	0x3dfd96de	0.12382291
140	0xbd4284c0	-0.04748988
141	0xbb9b12c0	-0.00473246
142	0xbdbf2ce6	-0.093347356
143	0x3d7f5d38	0.06234476
144	0xbdf6c142	-0.1204858
145	0x3da9b534	0.08286515
146	0xbd5cd23c	-0.053911433
147	0x3d909aaa	0.0706075
148	0x3df02526	0.117258355
149	0xbdc70fec	-0.09719834
150	0x3cd47190	0.025933057
151	0xbdd11fe0	-0.10211158
152	0x3ddc824c	0.1076704
153	0x3de1e130	0.11029279
154	0x3dbf13f2	0.09329976
155	0x3d938116	0.072023556
156	0xbd19afdc	-0.03752123
157	0x3d6c5eb0	0.05770749
158	0x3c9c5428	0.019083098
159	0x3daeb4ae	0.08530556
160	0xbc8a5748	-0.016887322
161	0x3d3b6838	0.045753688
162	0xbc70dad0	-0.014700606
163	0xbd0dc7bc	-0.03461431
164	0x3dae626c	0.08514866
165	0x3ce6a6b8	0.02815567
166	0x3deba68c	0.11506376
167	0xbdebb9d8	-0.11510056
168	0xbdf51b34	-0.11968079
169	0x3dfdc52c	0.12391123
170	0x3dae2aae	0.08504234
171	0x3da8cfde	0.082427725
172	0x3d56985c	0.052391395
173	0xbd371fa4	-0.04470791
174	0xbd46f3a0	-0.048572183
175	0xbd8e7ed2	-0.06957783
176	0xbdab7844	-0.08372548
177	0x3dffd2ca	0.12491377
178	0x3dfa824e	0.12231885
179	0xbd3d769c	-0.046255693
180	0x3d32a1e4	0.043611422
181	0xbdd97686	-0.1061831
182	0x3debd3a0	0.11514974
183	0xbd9ce1f4	-0.07660285
184	0x3dc82608	0.09772879
185	0x3dcda44e	0.10041104
186	0x3df1dfc4	0.11810258
187	0x3cc62de0	0.024191797
188	0x3d7ecc44	0.06220652
189	0xbde80bbe	-0.11330365
190	0x3c048150	0.008087471
191	0x3db16e56	0.08663623
192	0xbd8b3dfa	-0.067989305
193	0xbdf513ee	-0.11966692
194	0x3de57c12	0.11205305
195	0x3d290bc0	0.04127097
196	0xbd852e58	-0.0650298
197	0x3d2fac44	0.042888895
198	0xbdd4e84e	-0.10395871
199	0xbc8a7870	-0.016903132
200	0xbcf3bff8	-0.029754624
201	0x3de50f62	0.11184575
202	0xbdc8aee0	-0.0979898
203	0x3da57caa	0.080804184
204	0x3db4e620	0.08832955
205	0xbdf39866	-0.11894302
206	0xbbb72e40	-0.00559023
207	0xbd2e7670	-0.04259342
208	0xbd7f6484	-0.06235172
209	0x3d058ee4	0.032606974
210	0x3df55ebe	0.11980961
211	0x3dfe2526	0.12409429
212	0x3dbd8b02	0.09255029
213	0xbd42f368	-0.04759541
214	0x3c13bb90	0.009016886
215	0x3d4c3f30	0.049864948
216	0xbcf9d590	-0.030497342
217	0x3901ec00	0.00012390316
218	0xbde6c466	-0.11267929
219	0x3d920310	0.071294904
220	0xbde2982e	-0.11064182
221	0xbddd4808	-0.108047545
222	0x3d6f4754	0.058417633
223	0x3dbd375e	0.09239076
224	0xbd6a6a2c	-0.05723016
225	0x3d89d4ea	0.06730063
226	0xbdfbf258	-0.12302083
227	0xbda95e92	-0.08269991
228	0xbd87238c	-0.06598577
229	0x3dddc0d8	0.10827798
230	0xbd129e20	-0.03579533
231	0x3d846f20	0.06466508
232	0xbc85ae48	-0.016318455
233	0x3dec8794	0.11549297
234	0xbd885c68	-0.0665825
235	0xbd1086f8	-0.035284966
236	0xbd408110	-0.046998084
237	0x3defc450	0.117073655
238	0x3d8211fe	0.06351088
239	0x3cb452b0	0.022012085
240	0xbdb5d0a2	-0.08877684
241	0x3d3bdf64	0.04586734
242	0x3d8b3f94	0.06799236
243	0x3b2f7800	0.0026774406
244	0x3dd55c50	0.10417998
245	0x3cf62ce0	0.030050695
246	0xbdb9db96	-0.09075086
247	0x3d3e0044	0.046386972
248	0xbd334ca4	-0.043774262
249	0x3cbcd9a0	0.02305299
250	0xbdb79b84	-0.08965209
251	0xbcbcc3e8	-0.023042634
252	0xbd336c20	-0.043804288
253	0xbdcd1cb6	-0.10015242
254	0xbb9aea40	-0.004727632
255	0x3c99c5c0	0.018771052

egru.bias_ih_l0 f4 [192]
0	0x3dee2c9c	0.11629602
1	0xbdd4ddd6	-0.10393874
2	0x3d36e6bc	0.04465364
3	0x3deddde4	0.11614588
4	0xbbb6bfc0	-0.0055770576
5	0xbd332ab4	-0.043741897
6	0xbbc8c1a0	-0.0061265975
7	0xbdddea7a	-0.108357385
8	0xbdbdbd52	-0.092646256
9	0x3d06bf28	0.032897145
10	0xbdcaaae2	-0.098958746
11	0x3df7e4c0	0.121041775
12	0x3c865140	0.016396165
13	0xbd8882be	-0.06665562
14	0xbd46fd44	-0.048581377
15	0xbbfd3fe0	-0.0077285618
16	0xbb1f6b80	-0.002432555
17	0x3dc1ffa2	0.09472586
18	0x3dda2406	0.10651402
19	0xbc99b448	-0.018762723
20	0xbdc517c2	-0.09623672
21	0xbde9175e	-0.1138141
22	0xbd861cf0	-0.06548488
23	0xbdfcced4	-0.12344137
24	0xbdbd95dc	-0.09257099
25	0x3d456798	0.048194498
26	0xbdcc78a4	-0.09983948
27	0x3dfb5280	0.12271595
28	0xbad49c80	-0.0016220957
29	0x3d835682	0.064129844
30	0xbd7143a0	-0.058902383
31	0xbcb935e0	-0.022608697
32	0xbcdffb28	-0.02734144
33	0xbdd81932	-0.105516806
34	0xbb80b500	-0.003927827
35	0xbd67e6e0	-0.056616664
36	0x3c6e4670	0.014543161
37	0xbddc0358	-0.10742825
38	0xbdfaa18a	-0.122378424
39	0xbdcff7aa	-0.1015466
40	0x3d500830	0.05078906
41	0xbdd80636	-0.1054806
42	0xbc6d85c0	-0.0144972205
43	0x3baa0ba0	0.005189374
44	0x3c41aa10	0.011820331
45	0x3d00748c	0.031361148
46	0xbc6842f0	-0.014176115
47	0x3d9a1940	0.07524347
48	0xbd2fc8d8	-0.04291615
49	0xbdfa426e	-0.12219702
50	0xbd883af8	-0.066518724
51	0xbdd5c638	-0.10438198
52	0x3d888310	0.06665623
53	0xbd6176b4	-0.055044845
54	0x3b67fa00	0.0035396814
55	0x3df85684	0.121258765
56	0xbbd34f40	-0.0064486563
57	0xbc4c6a00	-0.012476444
58	0x3dfc783c	0.123276204
59	0xbd4c639c	-0.049899682
60	0x3d3fc944	0.0468228
61	0x3dfc1550	0.123087525
62	0x3da96536	0.082712576
63	0xbbc71060	-0.00607495
64	0xbd3fb768	-0.04680577
65	0xbd2a93d8	-0.0416449
66	0x3d14391c	0.036187276
67	0xbc9d0dd8	-0.01917164
68	0x3a9d4480	0.0011998564
69	0xbd73c1b8	-0.059510916
70	0xbdcec0b8	-0.10095352
71	0xbd50bbf0	-0.05096048
72	0xbdd564e0	-0.10419631
73	0xbda4e754	-0.08051935
74	0xbddbe0f2	-0.10736264
75	0xbdc30fe6	-0.09524517
76	0x39649c00	0.00021801889
77	0x3d6fc190	0.058534205
78	0xbd86dad0	-0.06584704
79	0x3cc7dd48	0.024397507
80	0x3d5a64a0	0.05331862
81	0x3b3a5980	0.0028434694
82	0x3cbffdd0	0.023436457
83	0xbdd51d32	-0.10405959
84	0x3d4895a4	0.048970833
85	0x3db752b4	0.08951321
86	0x3d9890e2	0.07449509
87	0x3d6b80b0	0.057495773
88	0xbdbe48da	-0.09291239
89	0x3dc89358	0.097937286
90	0xbde97208	-0.11398703
91	0x3def7c3c	0.11693618
92	0xbdb6319c	-0.08896181
93	0x3d15d2f4	0.036578134
94	0xbc971860	-0.01844424
95	0x3dd79c66	0.105278775
96	0x3ddaeb9c	0.1068947
97	0xbc8d5da8	-0.017256573
98	0x3d963fe6	0.073364064
99	0xbdd4704e	-0.10372983
100	0xbdaa6276	-0.08319561
101	0xbb877700	-0.004134059
102	0x3cb45998	0.022015378
103	0x3dde5fe6	0.10858135
104	0x3d8507e4	0.06495646
105	0xbc6943d0	-0.014237359
106	0x3d80fc32	0.062981024
107	0x3d99807c	0.074952096
108	0xbd623bc8	-0.055232793
109	0xba8e0c00	-0.0010837317
110	0x3dccb348	0.09995133
111	0xbcf9ec58	-0.030508205
112	0x3de5b1b8	0.11215538
113	0xbd6f84a4	-0.058476105
114	0xbda4389a	-0.080186084
115	0xbded92f8	-0.11600298
116	0x3c8757e0	0.016521394
117	0xbdb0e732	-0.08637847
118	0x3c94a348	0.018144265
119	0xbc96bb50	-0.018399864
120	0x3cf55078	0.029945597
121	0xbd109c90	-0.03530556
122	0xbd1cc2c0	-0.038271666
123	0x3d9a750e	0.07541858
124	0x3df8feec	0.121579975
125	0x3d251b20	0.04030907
126	0xbd9c1988	-0.07622057
127	0x3d58a148	0.052888185
128	0xbda59f02	-0.08086969
129	0xbd15c188	-0.03656152
130	0xbd0ae948	-0.03391388
131	0x3d2b7368	0.041858107
132	0x3dad9398	0.08475417
133	0x3d78e91c	0.060769185
134	0x3d910656	0.070812866
135	0x3dcea8d6	0.10090797
136	0xbdc60cce	-0.09670411
137	0x3d823e92	0.063595906
138	0x3dec5f30	0.11541593
139	0xbc358470	-0.011078939
140	0x3defe814	0.11714187
141	0xbde2270e	-0.11042605
142	0x3c1c0ae0	0.009524077
143	0xbdc5acb2	-0.0965208
144	0xbd74b064	-0.05973853
145	0xbc00e6f0	-0.00786756
146	0xbdd10a28	-0.10207015
147	0x3da64422	0.08118464
148	0xb84d8000	-4.8995018e-05
149	0x3d5fd6c8	0.05464819
150	0xbd8ad8dc	-0.06779644
151	0xbdf6331e	-0.120214686
152	0x3d127a7c	0.03576134
153	0xbd56d78c	-0.052451655
154	0xbb5b26c0	-0.0033439845
155	0x3c94fc60	0.018186748
156	0xbd756338	-0.059909075
157	0x3d8e8f6c	0.06960949
158	0xbde4c448	-0.1117025
159	0x3dcc3234	0.09970513
160	0xbdde1cd0	-0.10845339
161	0xbde0290c	-0.10945329
162	0x3de7474e	0.11292897
163	0x3db91c6e	0.09038626
164	0xbc872930	-0.016499132
165	0x3c38ce80	0.011279702
166	0x3ddbb3ea	0.10727675
167	0x3d92ee2e	0.071743354
168	0xbc852e70	-0.016257495
169	0xbba42a20	-0.0050099045
170	0xbdf4c712	-0.11952032
171	0x3da04f7e	0.07827662
172	0x3bc678c0	0.006056875
173	0x3d2c4540	0.04205823
174	0x3db28198	0.08716124
175	0xbd5cb77c	-0.05388592
176	0x3bb2a860	0.005452201
177	0xbdef51b4	-0.116855055
178	0xbda4b322	-0.08041979
179	0x3c93a088	0.018020883
180	0x3dfe8c3c	0.12429091
181	0xbdfdb742	-0.12388469
182	0x3bd06a80	0.006360352
183	0xbdd52bf8	-0.10408777
184	0x3d886516	0.066599056
185	0xbdfd1fae	-0.12359558
186	0xbd2dddb0	-0.042447746
187	0xbcbe25b8	-0.023211345
188	0xbdbab9f6	-0.091175005
189	0x3c52fbd0	0.01287742
190	0x3db9bdb2	0.09069385
191	0x3df2e718	0.11860484

egru.bias_hh_l0 f4 [192]
0	0xbaf31c80	-0.0018547922
1	0xbc9968c0	-0.018726707
2	0x3daa3b4a	0.0831209
3	0x3c903718	0.017604396
4	0x3c5c1210	0.013432041
5	0x3c26bdd0	0.010177091
6	0x3cecf310	0.028924495
7	0x3de37796	0.111067936
8	0x3dd0856e	0.101817
9	0x3b432f80	0.002978295
10	0x3dc2515a	0.09488173
11	0x3db9534c	0.09049091
12	0xbc80ff60	-0.015746772
13	0x3d933394	0.07187572
14	0x3dab542e	0.083656654
15	0x3db86564	0.09003714
16	0x3dbe0e30	0.0928005
17	0x3bc0f520	0.005888596
18	0xbdeaeebc	-0.11471316
19	0x3beb1d80	0.0071751475
20	0x3d62edcc	0.055402562
21	0xbd754868	-0.059883505
22	0x3d86d840	0.06584215
23	0xbdd10d44	-0.10207608
24	0x3d5a6fb0	0.05332917
25	0xbdfb5442	-0.1227193
26	0x3daaa394	0.08331981
27	0x3d91ee74	0.071255594
28	0x3d9eb9d6	0.07750289
29	0xbd683440	-0.056690454
30	0xbdabe23a	-0.08392759
31	0x3d02ba68	0.031916052
32	0xbca812f8	-0.020516858
33	0x3d5b71b4	0.053575233
34	0xbc838978	-0.016056761
35	0xbdd59ab6	-0.104298994
36	0x3c743eb0	0.014907524
37	0xbdb4e78a	-0.08833225
38	0x3d9e0d7a	0.07717414
39	0x3be89b20	0.0070985705
40	0xbdc56b90	-0.096396565
41	0x3d0a0a00	0.033700943
42	0xbcd653b0	-0.026162952
43	0x3ceb5d58	0.028731033
44	0xbd693a24	-0.056940213
45	0x3ddd2cdc	0.10799572
46	0x3d599c6c	0.05312769
47	0x3db96da8	0.090541184
48	0xbdaf8718	-0.08570689
49	0x3c720f80	0.014774203
50	0x3d2d3888	0.04229024
51	0xbd6e4de4	-0.05817975
52	0x3d9473d4	0.07248655
53	0x3c13aba0	0.009013087
54	0xbde0636a	-0.10956462
55	0xbb6eec00	-0.0036456585
56	0x3d0ec6dc	0.034857616
57	0xbd3de410	-0.046360075
58	0xbdb89560	-0.09012866
59	0x3dcf8d62	0.101343885
60	0xbda705d4	-0.081554085
61	0xbc947cf8	-0.018125996
62	0x3d60641c	0.05478297
63	0x3d197148	0.03746155
64	0xbc65f970	-0.014036521
65	0x3da17f40	0.07885599
66	0x3de88c32	0.11354865
67	0xbde7435a	-0.11292143
68	0x3de36966	0.111040875
69	0x3d2c75f0	0.04210466
70	0xbdc0451e	-0.09388183
71	0x3df73578	0.12070745
72	0x3da800d4	0.08203283
73	0xbcb82b98	-0.022481725
74	0x3df030d6	0.11728065
75	0xbdd4e5f4	-0.103954226
76	0x3d503ca4	0.05083908
77	0x3c7d5930	0.0154631585
78	0x3dcd2d78	0.10018438
79	0x3d1e990c	0.038720176
80	0x3c490dc0	0.012271345
81	0x3d4fffd8	0.0507811
82	0xbccf72c0	-0.025323272
83	0xbdfd57bc	-0.1237025
84	0x3da7aa8c	0.08186826
85	0x3db036b4	0.08604184
86	0xbdad883e	-0.08473252
87	0x3cb04860	0.021518886
88	0xbc0f90f0	-0.008762583
89	0xbde3f696	-0.11131017
90	0xbd2e77d4	-0.042594746
91	0xbd94a51c	-0.072580546
92	0x3cf7e900	0.03026247
93	0xbdc7b00e	-0.09750377
94	0xbda325d0	-0.079661965
95	0x3c8fc1e0	0.017548501
96	0x3d4339fc	0.04766272
97	0xbaa7da00	-0.0012806058
98	0xbcb9f1f8	-0.022698388
99	0x3d94fcd6	0.07274787
100	0x3dfe8b8c	0.1242896
101	0x3dd7710a	0.10519607
102	0x3debc994	0.11513057
103	0x3da59a6e	0.08086096
104	0x3dd2e510	0.102975965
105	0xbc02f7c0	-0.0079936385
106	0xbc20ddd0	-0.009818509
107	0x3d59b174	0.053147748
108	0x3dd5b82c	0.104355186
109	0xbc85a170	-0.016312331
110	0xbd4e9968	-0.05043927
111	0xbd590328	-0.052981526
112	0xbcd98a88	-0.026555315
113	0x3d32e444	0.043674722
114	0xbd1e596c	-0.038659498
115	0x3d1d2d34	0.038373187
116	0x3d010ab8	0.031504363
117	0xbdd3a01c	-0.10333273
118	0xba521800	-0.00080144405
119	0x3de6cdee	0.11269747
120	0xbdeb098c	-0.1147643
121	0x3d1a36b8	0.03764984
122	0x3dd0af1a	0.10189648
123	0xbd002eb4	-0.03129454
124	0xbd8c2bf2	-0.068443194
125	0x3cd023d8	0.025407717
126	0xbd186480	-0.03720522
127	0xbda5bb54	-0.08092371
128	0xbc466730	-0.012109563
129	0x3da5b0c0	0.08090353
130	0x3da34492	0.07972063
131	0x3d5bd2f8	0.053667992
132	0x3dbdc564	0.09266165
133	0xbda0f7c8	-0.078597605
134	0x3d68e70c	0.05686097
135	0xbddd25e4	-0.10798243
136	0xbd24d270	-0.04023975
137	0x3d57ee4c	0.052717492
138	0xbd82946c	-0.063759655
139	0x3dd09852	0.10185303
140	0x3d2234f0	0.039601266
141	0xbd943b26	-0.07237844
142	0xbb26ce80	-0.0025452673
143	0x3dfc4aee	0.12318979
144	0x3da75d36	0.081720755
145	0x3d8d3af6	0.068960115
146	0xbc568f20	-0.013095647
147	0x3dbd7e6a	0.09252627
148	0x3dfd1f10	0.1235944
149	0xbde4dfbc	-0.111754864
150	0xbd70f7b0	-0.058829963
151	0xbd09dc7c	-0.033657536
152	0x3d3a5bd8	0.045497745
153	0xbcdf4af0	-0.027257413
154	0x3df48618	0.11939639
155	0x3d49b310	0.049243033
156	0xbd9074ba	-0.07053514
157	0x3ce9d7c0	0.02854526
158	0xbd95216c	-0.07281765
159	0x3dae2946	0.08503966
160	0xbde29e9e	-0.1106541
161	0x3df01518	0.11722773
162	0x3d9ff82a	0.078110054
163	0x3ddf1f08	0.108945906
164	0xbd8a4ec4	-0.067533046
165	0xbd88b320	-0.066747904
166	0xbd3a7de4	-0.045530215
167	0x3d89d45c	0.067299575
168	0x3d626cb8	0.055279464
169	0xbd910b6c	-0.07082257
170	0x3c088780	0.008333087
171	0x3da1ea92	0.07906069
172	0xbd6444ac	-0.055729553
173	0x3d18b40c	0.03728108
174	0xbddddc94	-0.108330876
175	0x3df409fc	0.11915967
176	0xbbc0d900	-0.0058852434
177	0xbdf3bf3c	-0.119017094
178	0xbd6db9b4	-0.05803843
179	0x3cba5448	0.022745267
180	0xbdd5f34c	-0.10446796
181	0x3d8cbdea	0.06872161
182	0x3dfa3c12	0.12218489
183	0xbd78756c	-0.060658857
184	0xbd370b48	-0.044688493
185	0x3d4c5288	0.049883395
186	0x3d442ebc	0.047896132
187	0xbdee6d2e	-0.11641918
188	0x3d0e47a8	0.034736305
189	0x3dae114a	0.084993914
190	0x3b9daa20	0.0048115402
191	0xbd0cfdcc	-0.034421727

dgru.weight_ih_l0 f4 [192, 1]
0	0x3d59e954	0.053201035
1	0xbdd26b06	-0.10274319
2	0xbd8df1d8	-0.06930894
3	0x3ca26448	0.019823208
4	0xbde01476	-0.109414026
5	0xbd81a36c	-0.063299984
6	0xbc6e00d0	-0.014526561
7	0xbdf0cb1a	-0.117574885
8	0xbbf6b580	-0.0075289607
9	0x3cec0af8	0.028813824
10	0xbd3cbf20	-0.04608071
11	0xbcdb6b10	-0.02678445
12	0x3c9a4f18	0.018836543
13	0xbcd6edf0	-0.026236504
14	0xbddaf238	-0.10690731
15	0x3d0872e8	0.03331271
16	0xbdf85fc2	-0.12127639
17	0xbd262cec	-0.040570185
18	0x3dd053cc	0.10172233
19	0x3d7c56f4	0.061606362
20	0x3d9f5c22	0.07781245
21	0x3c7260e0	0.014793605
22	0x3df22378	0.118231714
23	0x3dd1e49e	0.102486834
24	0x3c71eee0	0.014766425
25	0x3d115100	0.03547764
26	0xbb179140	-0.0023127347
27	0x3d0989d0	0.033578694
28	0x3d687c98	0.056759447
29	0x3d0d8e08	0.03455928
30	0x3d11b02c	0.0355684
31	0xbca50980	-0.020146132
32	0x3dd66626	0.10468702
33	0x3dc53a2a	0.096302345
34	0xbd895a72	-0.06706704
35	0xbb745c40	-0.003728643
36	0xbdfb7e2e	-0.12279926
37	0xbd1c8b38	-0.038218707
38	0x3d06a444	0.0328715
39	0x3d0879b0	0.033319175
40	0xbd3c6bfc	-0.04600142
41	0xbd2e24cc	-0.04251556
42	0x3df32fae	0.118743286
43	0x3be53940	0.00699535
44	0xbd99cc7c	-0.075097054
45	0xbd5f5e90	-0.05453354
46	0xbdc30b6e	-0.095236644
47	0x3b9d9280	0.004808724
48	0x3d8cdb96	0.0687782
49	0xbd47ecbc	-0.048809752
50	0x3da97660	0.08274531
51	0xbd81943e	-0.06327103
52	0xbdeb22e8	-0.11481267
53	0x3c213780	0.009839892
54	0x3b89f820	0.004210487
55	0xbb553840	-0.0032534748
56	0x3d46b1e4	0.048509493
57	0xbd40ac58	-0.04703936
58	0xbd6c8d60	-0.057752013
59	0xbd26b3e0	-0.040698886
60	0xbdb0796e	-0.08616911
61	0x3d9bc368	0.0760563
62	0xbcd328d0	-0.025776297
63	0x3de884c2	0.113534465
64	0xbdd674f8	-0.10471529
65	0x3dc0d492	0.094155446
66	0x3d81c186	0.0633574
67	0xbd398858	-0.045296043
68	0x3d7b7f58	0.06140074
69	0xbdbc192e	-0.0918449
70	0xbd9bc4b8	-0.076058805
71	0x3d1899c4	0.037256017
72	0xbdf326f2	-0.118726626
73	0xbddc8a8c	-0.10768613
74	0x3d53d918	0.05172071
75	0x3df8b4cc	0.12143859
76	0xbdee30c6	-0.116303965
77	0x3c63f3e0	0.013913125
78	0xbd52c000	-0.051452637
79	0x3d180984	0.03711845
80	0xbdb2b56c	-0.0872601
81	0xbd46aa20	-0.048502088
82	0xbdeb5a8a	-0.11491878
83	0x3c8de890	0.017322809
84	0x3ddb86ea	0.10719092
85	0xbdaf4c3a	-0.08559461
86	0x3decab7e	0.11556147
87	0x3d54a32c	0.051913425
88	0xbda8a3e8	-0.08234388
89	0x3dc7a426	0.09748106
90	0x3dcccb4e	0.09999715
91	0x3bda4c40	0.0066619217
92	0x3b866fe0	0.004102692
93	0xbcf568f0	-0.029957265
94	0x3db05eaa	0.08611806
95	0xbdf3dad4	-0.119069725
96	0xbde873b0	-0.11350191
97	0xbdcfb99a	-0.101428226
98	0x3de5c85e	0.11219858
99	0x3c8512f8	0.016244397
100	0xbd25be78	-0.04046485
101	0x3db90344	0.09033826
102	0x3a2fa000	0.0006699562
103	0xbcfbc658	-0.030734226
104	0x3d8773b2	0.06613864
105	0xbddc945a	-0.10770483
106	0xbd598348	-0.053103715
107	0x3d8f86ba	0.07008119
108	0x3d8b984c	0.06816158
109	0xbd82c76e	-0.063856944
110	0xbd840c00	-0.06447601
111	0x3df7356a	0.12070735
112	0x3de8670c	0.1134778
113	0x3de39d16	0.11113946
114	0xbd508c24	-0.0509149
115	0x3d9b3042	0.07577564
116	0x3cbd79a8	0.0231293
117	0xbdf0f422	-0.11765315
118	0x3df1afcc	0.11801109
119	0xbd343508	-0.043995887
120	0xbd9e9cc8	-0.077447474
121	0xbdd84d1c	-0.105615824
122	0x3da008ba	0.078141645
123	0xbd6cf81c	-0.057853803
124	0xbc6af8f0	-0.014341578
125	0x3de365a4	0.11103371
126	0x3bf36100	0.007427335
127	0xbd4cf6c0	-0.050040007
128	0x3d805216	0.06265657
129	0x3d89b62e	0.06724201
130	0x3ddda6a0	0.10822797
131	0xbc38e520	-0.011285096
132	0x3d822372	0.06354417
133	0xbdbf51c6	-0.09341769
134	0xbddd6a16	-0.1081125
135	0x3bffde20	0.007808462
136	0x3dd3ff30	0.103514075
137	0xbd94c7ec	-0.072646946
138	0xbd95ddae	-0.07317673
139	0x3d867f22	0.065672174
140	0x3bce7200	0.006300211
141	0x3b4a79c0	0.0030895323
142	0xbdca1a7e	-0.09868334
143	0xbdf017dc	-0.11723301
144	0xbce561e8	-0.028000787
145	0x3ddfffcc	0.10937461
146	0xbcd826d8	-0.02638571
147	0x3d457770	0.048209608
148	0xbc788650	-0.015168741
149	0x3d2948a0	0.041329026
150	0x3db1c8a0	0.08680844
151	0xbd0af57c	-0.03392552
152	0xbd3e0080	-0.046387196
153	0x3d9e5562	0.07731129
154	0x3dfef900	0.12449837
155	0xbcfbc9c8	-0.030735865
156	0xbd86653e	-0.06562279
157	0x3dd753cc	0.1051403
158	0xbcfd0090	-0.030884057
159	0x38dac000	0.00010430813
160	0x3dc84e74	0.09780589
161	0xbd5334cc	-0.051564023
162	0xbd8d7d7e	-0.06908701
163	0xbdefe8dc	-0.11714336
164	0xbd9b2cc2	-0.07576896
165	0x3d87c98a	0.066302374
166	0x3c6246c0	0.013810813
167	0x3d7847b8	0.06061527
168	0x3dec09c2	0.11525299
169	0xbdeb2a2a	-0.114826515
170	0x3dbe31d8	0.09286851
171	0xbda9d02e	-0.0829166
172	0xbd2a3674	-0.041555837
173	0xbcdf93e0	-0.027292192
174	0xbdc3ee1c	-0.095669
175	0xbdd1a45a	-0.10236426
176	0x3c8f4ac0	0.017491698
177	0xbd06b8ec	-0.0328912
178	0xbd16e54c	-0.03683977
179	0x3ddf2f6c	0.10897717
180	0xbd4fe158	-0.050752014
181	0xbd0c6abc	-0.034281477
182	0x3bccbb20	0.006247893
183	0xbd5995e4	-0.053121462
184	0xbde9e40e	-0.11420451
185	0x3dcc8bfc	0.099876374
186	0xbda3eac8	-0.08003765
187	0xbddecc28	-0.108787835
188	0xbd82c2e6	-0.0638483
189	0x3d607764	0.05480136
190	0xbca82440	-0.020525098
191	0x3de3e2d8	0.111272514

dgru.weight_hh_l0 f4 [192, 64]
0	0x3de31f0a	0.110899046
1	0x3d78ca78	0.060739964
2	0x3bf236e0	0.0073917955
3	0xbcb4e018	-0.022079512
4	0x3dafcc90	0.08583939
5	0xbdad2d04	-0.08455852
6	0x3d99516e	0.074862346
7	0xbd813ef0	-0.063108325
8	0xbd8b37be	-0.06797741
9	0x3d5dd3b0	0.05415696
10	0x3db2fddc	0.08739826
11	0xbda97cac	-0.082757324
12	0x3dc9fdba	0.098628476
13	0x3dbbc556	0.09168498
14	0xbd067160	-0.032822967
15	0xbca1f5e0	-0.019770563
16	0xbc313610	-0.010816112
17	0xbdb38248	-0.087650836
18	0xbde7be20	-0.1131556
19	0xbc66b400	-0.014081001
20	0x3dd9b7c6	0.10630755
21	0xbcf26e18	-0.029593512
22	0x3dc3b1bc	0.095553845
23	0xbd07dfb0	-0.03317231
24	0xbdfbd33a	-0.12296148
25	0xbdaa538e	-0.08316718
26	0xbdeec1aa	-0.11658032
27	0xbd57eaec	-0.052714273
28	0xbd0504fc	-0.032475457
29	0x3da8331c	0.08212873
30	0x3da89be2	0.08232857
31	0x3d023964	0.031793013
32	0xbd9e68ea	-0.077348545
33	0xbd319cb0	-0.04336232
34	0x3b9291c0	0.004472941
35	0x3d3240c4	0.043518797
36	0x3c390540	0.011292756
37	0xbda64bcc	-0.08119926
38	0xbd3cb934	-0.04607506
39	0x3d466e44	0.048445
40	0xbd5c3ce8	-0.053769022
41	0x3db53ee4	0.08849886
42	0x3d7b7f60	0.06140077
43	0x3d8ef894	0.06981006
44	0x3de9f638	0.114239156
45	0x3d8f1b02	0.06987573
46	0xbda107d4	-0.07862821
47	0xbd86fb1e	-0.065908656
48	0xbc9d34f8	-0.019190297
49	0xbbe9b560	-0.0071322173
50	0xbdd0f24e	-0.10202466
51	0xbde3a44a	-0.1111532
52	0x3d3be860	0.045875907
53	0x3daf0fbe	0.085479245
54	0xbd532d58	-0.051556915
55	0xbdc47e7a	-0.09594436
56	0x3cc3f498	0.023920342
57	0xbc39ca50	-0.011339739
58	0x3def5ddc	0.11687824
59	0xbd3890a8	-0.04505983
60	0x3daef684	0.08543113
61	0x3da0ce4e	0.078518495
62	0xbd733274	-0.059374288
63	0xbdaf0c26	-0.08547239
64	0xbc4f91e0	-0.012669057
65	0xbc8be3d8	-0.017076418
66	0xbc405770	-0.011739597
67	0x3dac7cf2	0.08422269
68	0x3cd91610	0.026499778
69	0x3da75bee	0.08171831
70	0xbd93ad82	-0.07210828
71	0x3dad6962	0.08467366
72	0xbd1f0ba4	-0.03882946
73	0x3d4aafa0	0.049483895
74	0x3c674710	0.014116064
75	0xbd716cdc	-0.058941707
76	0xbd9aa628	-0.07551223
77	0x3dab1122	0.08352877
78	0x3d9817ee	0.07426439
79	0xbc6d5ad0	-0.014486983
80	0x3d7973e4	0.060901538
81	0x3dd525ae	0.104075775
82	0x3c1b29b0	0.009470388
83	0xbda4cb8c	-0.08046636
84	0x3daa4e2c	0.08315691
85	0x3b8ee600	0.004360914
86	0x3c90d7e0	0.017681062
87	0xbc923ea0	-0.017852128
88	0xbd97cbe4	-0.07411936
89	0xbda15684	-0.0787783
90	0xbdddc10c	-0.108278364
91	0x3d7e81ec	0.062135622
92	0xbcac9188	-0.021065488
93	0x3da5eb44	0.08101514
94	0xbd72fb4c	-0.059321687
95	0xbd1d0a1c	-0.03833972
96	0xbd2ce428	-0.042209774
97	0xbdd44014	-0.103637844
98	0x3de28af2	0.11061658
99	0x3daa2ac2	0.08308937
100	0x3d071f60	0.032988906
101	0x3d059f7c	0.0326228
102	0x3d4a4830	0.04938525
103	0xbd989020	-0.07449365
104	0xbdfa1454	-0.122109085
105	0xbba18220	-0.004928842
106	0xbcc38398	-0.02386646
107	0xbdc07b48	-0.09398514
108	0xbdc71e8a	-0.09722622
109	0x3c7ec9f0	0.015551075
110	0xbdf10040	-0.11767626
111	0x3ddd78ba	0.108140424
112	0xbd4653e0	-0.048419833
113	0xbd1c4b34	-0.038157657
114	0x3dc1adec	0.09457001
115	0x3da72854	0.08161989
116	0xbdfbcbba	-0.12294717
117	0x3d83f522	0.0644324
118	0xbd727e4c	-0.059202477
119	0x3d8f7738	0.07005161
120	0xbd88a7ee	-0.06672655
121	0xbd9eee34	-0.077602774
122	0x3defb6ae	0.11704765
123	0xbdead672	-0.114666834
124	0xbcf3aa08	-0.029744163
125	0x3d239558	0.039937347
126	0xbd87af7c	-0.06625268
127	0xbc9fcfc8	-0.019508258
128	0xbd1a9844	-0.037742868
129	0xbc30d4f0	-0.010792956
130	0x3db99ee2	0.090635076
131	0x3db87b2c	0.09007868
132	0xbd257f28	-0.04040447
133	0x3dc2ecc6	0.09517817
134	0xbdbf874a	-0.09351976
135	0x3d753970	0.05986923
136	0xbde744d6	-0.11292426
137	0x3dff6392	0.124701634
138	0x3dd63a0c	0.1046029
139	0xbd80594a	-0.062670305
140	0xbc9e3fd0	-0.019317538
141	0x3d4e3cb8	0.050350875
142	0x3d01e480	0.031712055
143	0xbdcc91bc	-0.09988734
144	0xbdc00b6e	-0.0937718
145	0x3dab3266	0.08359222
146	0x3dfc6f34	0.12325898
147	0x3c2731e0	0.010204762
148	0xbdfdc3c8	-0.12390858
149	0xbd00f09c	-0.031479463
150	0xbdfba714	-0.12287727
151	0xbd896554	-0.0670878
152	0xbbb40c20	-0.0054946095
153	0x3d2bd898	0.041954607
154	0x3d3f309c	0.046677217
155	0x3d87c98c	0.06630239
156	0x3df702e6	0.120611
157	0x3d4e3f08	0.05035308
158	0x3de4e956	0.11177318
159	0x3d49f5c4	0.049306646
160	0xbdf5eff6	-0.120086595
161	0x3d146170	0.036225736
162	0xbdedd8fc	-0.11613652
163	0x3d517ce8	0.05114451
164	0xbd9346c8	-0.07191235
165	0xbdc68fec	-0.0969542
166	0xbc3d03f0	-0.011536583
167	0xbdfc6818	-0.12324542
168	0xbd3e654c	-0.046483323
169	0xbd47cbfc	-0.04877852
170	0x3df7443a	0.1207356
171	0xbd9f51fa	-0.07779308
172	0x3d65ede0	0.05613506
173	0xbddc8890	-0.10768235
174	0x3db54f42	0.08853008
175	0x3d3f4080	0.04669237
176	0xbda8d540	-0.08243799
177	0x3cfc11a8	0.030770138
178	0x3d922e60	0.071377516
179	0x3d474988	0.04865411
180	0x3cfaf038	0.030632123
181	0x3d7348fc	0.059395775
182	0xbdb254e0	-0.08707595
183	0x3cf4c730	0.029880136
184	0x3dbd5b12	0.09245886
185	0xbd8ad38c	-0.067786306
186	0x3d98edee	0.074672565
187	0xbd64b888	-0.055840045
188	0x3d063078	0.032761067
189	0x3b34e640	0.002760306
190	0x3d93ab68	0.072104275
191	0x3d955a4e	0.07292615
192	0xbd6c2f78	-0.057662457
193	0x3d8c46b4	0.06849423
194	0xbd229ea8	-0.039702088
195	0x3c89f7a8	0.016841725
196	0xb91b4400	-0.00014807284
197	0xbdc68262	-0.09692837
198	0xbd93ad36	-0.07210772
199	0xbde51fea	-0.11187728
200	0xbd9b7952	-0.075914994
201	0x3d978952	0.07399239
202	0xbbe3cbc0	-0.006951779
203	0xbdf1f468	-0.11814195
204	0xbd85daa8	-0.06535846
205	0x3aa27e80	0.0012397319
206	0x3caffbf0	0.021482438
207	0xbcfcf100	-0.030876637
208	0x3d8bc620	0.06824899
209	0x3d51b7f0	0.051200807
210	0x3de92544	0.11384061
211	0x3d2e6afc	0.042582497
212	0x3ddc0aca	0.10744245
213	0xbd575764	-0.052573577
214	0xbd9ff99a	-0.078112796
215	0x3df701a6	0.12060861
216	0xbd3ec6f4	-0.046576455
217	0xbd46d49c	-0.048542604
218	0x3dac8758	0.08424252
219	0xbdbdeac0	-0.09273291
220	0xbcafa3b8	-0.021440372
221	0x3d1ace8c	0.037794635
222	0xbcebecb8	-0.0287994
223	0x3af62d00	0.0018781722
224	0x3d14ef30	0.03636092
225	0x3de52cca	0.111901835
226	0xbdabc82e	-0.083877906
227	0x3d072920	0.032998204
228	0x3df82890	0.12117112
229	0xbcce5520	-0.025187075
230	0xbcf1f608	-0.029536262
231	0x3df77ebc	0.120847195
232	0xbd8327f4	-0.06404105
233	0xbc682ef0	-0.014171347
234	0xbc75e650	-0.015008524
235	0xbdbb0efe	-0.09133719
236	0xbdd91f7a	-0.10601707
237	0xbae9b800	-0.0017831326
238	0x3d4f41d4	0.050599888
239	0x3dcfcf22	0.10146929
240	0x3bf6b880	0.0075293183
241	0x3ca880d8	0.02056925
242	0x3df38606	0.11890797
243	0xbd203004	-0.03910829
244	0xbda79c7e	-0.081841454
245	0x3d876382	0.066107765
246	0x3db75d30	0.08953321
247	0xbdf7d9d4	-0.12102094
248	0x3df1017a	0.1176786
249	0x3b86d9a0	0.0041152984
250	0xbddcf734	-0.10789338
251	0x3df6a3e6	0.1204298
252	0xbd37a394	-0.044833735
253	0x38f1c000	0.00011527538
254	0x3cd737d0	0.02627173
255	0x3d8fbcb2	0.07018413

dgru.bias_ih_l0 f4 [192]
0	0x3d68db24	0.056849614
1	0xbddc5592	-0.10758509
2	0x3de0c588	0.10975176
3	0x3dc9aa8a	0.09846981
4	0xbd57b20c	-0.052660033
5	0x3d526758	0.051368088
6	0x3d6dafc4	0.05802895
7	0x3dab030c	0.083501905
8	0xbd1f2348	-0.038852006
9	0x3da9ce90	0.08291352
10	0xbde18fa2	-0.11013724
11	0xbda36474	-0.07978144
12	0xbdf32842	-0.11872913
13	0x3ca76848	0.020435467
14	0xbdb925ba	-0.09040399
15	0xbcb0a868	-0.021564677
16	0x3ccaebd0	0.024770647
17	0xbd21ef04	-0.039534584
18	0xbde067a0	-0.10957265
19	0x3d56efe8	0.052474886
20	0xbdb0b5f4	-0.08628455
21	0xbce8e718	-0.028430507
22	0xbdc010ce	-0.09378205
23	0xbd37e4cc	-0.044895932
24	0xbd89eae0	-0.06734252
25	0x3d1eae0c	0.038740203
26	0xbd437f94	-0.04772909
27	0xbdbc639a	-0.09198685
28	0xbd683c7c	-0.056698307
29	0x3d14a5ac	0.03629081
30	0x3ddd87d0	0.1081692
31	0x3b9a6da0	0.0047127753
32	0x3d2239e4	0.03960599
33	0xbc8769f8	-0.016530022
34	0x3d0de7d8	0.03464493
35	0x3db60d86	0.08889298
36	0xbd066c8c	-0.032818362
37	0x3c0f9740	0.008764088
38	0x3da56c50	0.080772996
39	0x3d7f7dcc	0.06237583
40	0x3d87066a	0.0659302
41	0xbd9be26e	-0.076115474
42	0x3ddef464	0.108864576
43	0xbc106db0	-0.008815214
44	0xbd6b95f0	-0.05751604
45	0x3b76d040	0.0037660748
46	0xbd4a76a4	-0.04942955
47	0x3de5f1f0	0.112277865
48	0x3bf33cc0	0.0074230134
49	0xbda108ca	-0.078630045
50	0xbdc5fbba	-0.09667154
51	0xbdf8d1ac	-0.12149367
52	0x3dd66f68	0.10470468
53	0x3b467240	0.00302805
54	0x3d3ffb60	0.04687059
55	0x3de80634	0.11329308
56	0xbc92de58	-0.017928287
57	0xbd8f3214	-0.069919735
58	0xbdf96a20	-0.12178445
59	0x3d9d6f94	0.076872975
60	0x3df5b8b8	0.11998123
61	0x3c5a0af0	0.013308272
62	0x3c9aa088	0.018875375
63	0x3ca98528	0.020693377
64	0x3d7bda84	0.06148769
65	0xbd4af0f0	-0.049546182
66	0x3dbf807c	0.09350678
67	0xbd1a1014	-0.03761299
68	0x3d816de4	0.06319788
69	0x3d96f32a	0.073705986
70	0xbc226a40	-0.009913027
71	0xbd335df0	-0.043790758
72	0xbbb39da0	-0.005481437
73	0x3ae2f500	0.0017315447
74	0x3ab8ef80	0.0014109462
75	0xbda5d746	-0.08097701
76	0xbd3fdea4	-0.046843186
77	0xbc4be240	-0.012444079
78	0xbd2da940	-0.042397738
79	0x3d341118	0.043961614
80	0x3d746c94	0.05967386
81	0xbdaf9940	-0.08574152
82	0x3dd3964c	0.10331401
83	0xbc9381f0	-0.018006295
84	0xbd8e6d1a	-0.06954403
85	0xbda987a4	-0.082778245
86	0x3de3f484	0.11130622
87	0xbcc90cc0	-0.024542212
88	0x3dd5c610	0.10438168
89	0x3ab3b080	0.0013709217
90	0xbda6012a	-0.08105691
91	0x3c6829f0	0.014170155
92	0x3da10f70	0.078642726
93	0xbdd06516	-0.101755306
94	0xbd1bc958	-0.038033813
95	0x3dfcf364	0.123511106
96	0xbdf16964	-0.1178768
97	0x3d8af538	0.06785053
98	0x3ae7ef00	0.0017695129
99	0x3d979f24	0.074034005
100	0xbde2c460	-0.11072612
101	0xbdd50280	-0.104008675
102	0xbdb74eba	-0.08950563
103	0xbc0d90b0	-0.008640453
104	0xbdcdc9f4	-0.10048285
105	0xbce75c48	-0.028242245
106	0x3cc5a468	0.024126247
107	0xbdc351e2	-0.09537102
108	0xbc6f1af0	-0.014593825
109	0xbd881a20	-0.06645608
110	0xbd69b53c	-0.057057604
111	0xbd3196b0	-0.043356597
112	0x3bbcbf60	0.0057601184
113	0x3db22ece	0.087003335
114	0x3df77a14	0.120838314
115	0xbcb395f0	-0.021922082
116	0x3de66c7a	0.11251159
117	0x3de9cf78	0.11416525
118	0xbd060c20	-0.032726407
119	0xbd4f25b4	-0.050573066
120	0xbd9cf8f6	-0.07664673
121	0x3d3798e0	0.044823527
122	0xbab83d80	-0.0014056414
123	0x3d969450	0.07352507
124	0xbd95f482	-0.07322027
125	0xbdbc2510	-0.091867566
126	0xbbd49280	-0.0064871907
127	0x3d9eee38	0.0776028
128	0x3defd962	0.11711384
129	0xbd897ae6	-0.06712894
130	0xbc798490	-0.015229359
131	0x3d9ac4a2	0.07557036
132	0x3d997bea	0.07494338
133	0x3df4cab8	0.11952728
134	0xbdb9bfc0	-0.090697765
135	0xbdcf9d36	-0.101374075
136	0x3dfec2be	0.12439488
137	0xbdebf578	-0.11521429
138	0xbdc36040	-0.095398426
139	0xbd901dac	-0.070369095
140	0x3d9ffffa	0.078124955
141	0xbd29f7fc	-0.041496262
142	0xbc851ab0	-0.016248077
143	0xbb6df780	-0.0036310852
144	0x3d9db45a	0.07700415
145	0x3ca3ff68	0.020019248
146	0xbdbb0914	-0.09132591
147	0xbdef5ffe	-0.11688231
148	0xbda9ee8a	-0.08297451
149	0x3be7a340	0.0070690215
150	0x3cdd7100	0.027031422
151	0xbddec50e	-0.10877429
152	0x3dc251e6	0.09488277
153	0xbdf7ceec	-0.12100014
154	0xbd76c7ec	-0.060249254
155	0xbda4f104	-0.080537826
156	0x3daf204c	0.08551082
157	0x3d8ff4f8	0.07029146
158	0x3d39d148	0.0453656
159	0xbd156490	-0.036472857
160	0xbd583ad8	-0.052790493
161	0x3d14fd4c	0.036374375
162	0xbc84ed30	-0.016226381
163	0xbdbb5708	-0.09147459
164	0x3d2a7f90	0.04162556
165	0x3cf1f208	0.029534355
166	0xbc0ccdd0	-0.008593991
167	0xbd8b354a	-0.067972735
168	0x3cd05090	0.02542904
169	0xbd14f710	-0.03636843
170	0xbcdea2b8	-0.0271772
171	0xbd395f10	-0.045256674
172	0xbc198410	-0.009369865
173	0xbb4d6f40	-0.0031346828
174	0xbcd6c918	-0.026218936
175	0x3cc86590	0.024462491
176	0x3da72dec	0.08163056
177	0xbcbf28a0	-0.023334801
178	0xbda88298	-0.08228034
179	0x3dff14e6	0.12455158
180	0xbc90b8f0	-0.01766631
181	0x3c925bc0	0.017866015
182	0xbdd3b7e2	-0.10337807
183	0xbd9437ae	-0.072371826
184	0x3c4bac50	0.012431219
185	0x3d9457f6	0.0724334
186	0x3d6f64f8	0.0584459
187	0x3de958c6	0.11393885
188	0xbd806f16	-0.06271188
189	0xbd1fae0c	-0.038984343
190	0xbdaaa8a0	-0.08332944
191	0x3d117570	0.035512388

dgru.bias_hh_l0 f4 [192]
0	0x3d1f31c0	0.038865805
1	0x3cf10390	0.029420644
2	0xbd700538	-0.058598727
3	0x3c636cd0	0.013880923
4	0xbd29df84	-0.041472927
5	0xbdf2cb04	-0.118551284
6	0xbc86c788	-0.016452566
7	0xbd9fc550	-0.07801306
8	0xbdc536f6	-0.096296236
9	0xbc7197f0	-0.014745697
10	0x3c7460c0	0.014915645
11	0x3df18334	0.11792603
12	0xbd0b6894	-0.03403528
13	0xbc9fc3c8	-0.019502535
14	0xbde293b2	-0.11063327
15	0xbdcc2cde	-0.09969495
16	0xbc869658	-0.016429111
17	0x3dc9deda	0.09856959
18	0xbdcbf6c0	-0.09959173
19	0x3de1f772	0.110335246
20	0x3d17cfe8	0.03706351
21	0x3dbafcf0	0.09130275
22	0xbd880ecc	-0.06643447
23	0x3cdc1f60	0.02687043
24	0x3dc7b896	0.09752004
25	0x3d01e800	0.031715393
26	0x3dcd8a60	0.100361586
27	0xbd23ac04	-0.03995897
28	0x3da5fa26	0.08104353
29	0x3da50a2e	0.08058582
30	0x3dfa403c	0.12219283
31	0xbb7911c0	-0.0038004965
32	0x3de533f8	0.11191553
33	0xbc53d1f0	-0.012928471
34	0xbd4a2598	-0.04935226
35	0xbcfb7ce8	-0.030699208
36	0xbdae828e	-0.08520995
37	0xbcba1120	-0.022713244
38	0xbd801138	-0.06253284
39	0xbdac949a	-0.08426781
40	0x3dfa561e	0.12223457
41	0xbd3d2580	-0.04617834
42	0xbdc709c2	-0.09718658
43	0x3df7698a	0.12080677
44	0x3dfa426a	0.12219699
45	0xbdbcd6ea	-0.09220679
46	0x3db1705a	0.086640075
47	0x3d52bc18	0.05144891
48	0xbd5b8cf0	-0.053601205
49	0x3dc1a92c	0.09456095
50	0x3d75b1c8	0.059984
51	0xbd1162d8	-0.035494655
52	0xbdf603ae	-0.120124206
53	0xbdaad476	-0.08341305
54	0x3da617a8	0.08109981
55	0x3d29fc5c	0.041500434
56	0xbc2f27a0	-0.0106906
57	0x3c942110	0.018082172
58	0xbdf90e12	-0.12160887
59	0xba033400	-0.0005005002
60	0x3b9e8240	0.0048373044
61	0x3d1a2f78	0.037642926
62	0x3d5b50b0	0.053543746
63	0x3d20f740	0.039298296
64	0x3dcf66fc	0.101270646
65	0x3c4c4b60	0.012469143
66	0x3d857924	0.06517246
67	0x3de19fe6	0.11016826
68	0xbd8c1a0e	-0.06840907
69	0x3c71d540	0.014760315
70	0x3dbb5892	0.09147753
71	0x3dd39578	0.10331243
72	0x3dd7ce6e	0.1053742
73	0x3de9719a	0.11398621
74	0xbce388c8	-0.027775183
75	0xbd5db418	-0.05412683
76	0x3d1cd024	0.038284436
77	0xbdddc59c	-0.108287066
78	0xbdeb68ea	-0.1149462
79	0x3dbdf92c	0.092760414
80	0xbbc52040	-0.0060158074
81	0xbd3af38c	-0.04564242
82	0xbddb59ba	-0.10710473
83	0x3dc1c2a2	0.094609514
84	0xbddb845a	-0.107186034
85	0xbd8b7c52	-0.068108216
86	0x3d1fbcec	0.03899853
87	0xbd016604	-0.03159143
88	0xbd411a48	-0.047144204
89	0xbb054dc0	-0.0020340532
90	0xbd93b102	-0.07211496
91	0xbd39c1c0	-0.04535079
92	0x3d6553dc	0.055988178
93	0x3d6f4f28	0.0584251
94	0x3de3d576	0.11124699
95	0xbda5b254	-0.08090654
96	0xbd9b9510	-0.07596791
97	0xbc757890	-0.014982358
98	0xbd8039bc	-0.06261012
99	0x3dfe159a	0.12406464
100	0xbcade8f8	-0.021229252
101	0xbdce236a	-0.100653484
102	0xbdacf522	-0.08445193
103	0x3d402394	0.04690893
104	0x3dade60e	0.08491145
105	0x3c8270d8	0.015922949
106	0xbde2f9a0	-0.110827684
107	0x3d8a5366	0.06754188
108	0x3de02a08	0.10945517
109	0x3d954104	0.07287791
110	0x3dd42c54	0.103600174
111	0x3db7c8a8	0.08973819
112	0x3dd3e8e6	0.10347156
113	0xbd5489e8	-0.05188933
114	0xbd9bdb54	-0.07610193
115	0x3db13e12	0.08654417
116	0xbd158d60	-0.03651178
117	0x3c00fd60	0.007872909
118	0xbd92a258	-0.07159871
119	0xbd82b61c	-0.06382391
120	0xbdd9fcd4	-0.10643926
121	0xbd0ae2a4	-0.033907548
122	0xbca92ed0	-0.020652205
123	0x3d7eb89c	0.062187776
124	0x3df9cebc	0.121976346
125	0x3dae9392	0.085242406
126	0x3d23683c	0.039894328
127	0xbd2ac7f4	-0.041694596
128	0xbda42f38	-0.08016819
129	0x3dfc3966	0.123156354
130	0xbc3f65e0	-0.011682004
131	0x3d3bd190	0.04585415
132	0xbdda74c6	-0.10666804
133	0xbda22cac	-0.07918677
134	0xbdcf1d10	-0.10112965
135	0x3dbbf56a	0.091776684
136	0xbdfbb8ac	-0.12291083
137	0x3d30072c	0.04297559
138	0x3d193208	0.03740123
139	0xbdb5d46e	-0.08878408
140	0xbdb3494c	-0.08754215
141	0x3dbe5e72	0.09295358
142	0xbc971998	-0.018444821
143	0xbca12858	-0.019672558
144	0xbda27166	-0.07931785
145	0xbde3e008	-0.11126715
146	0xbb932840	-0.004490882
147	0xbdf7691e	-0.120805964
148	0xbcb42cf0	-0.021994084
149	0xbd2436e8	-0.040091425
150	0xbd83b1ce	-0.06430398
151	0xbda1ddd0	-0.079036355
152	0x3dc370f2	0.09543027
153	0xba300700	-0.000671491
154	0xbcdd5268	-0.027016833
155	0xbda656ee	-0.08122049
156	0x3d6dd35c	0.058062896
157	0x3d63979c	0.055564508
158	0x3b874dc0	0.0041291416
159	0xbde6c70c	-0.11268434
160	0x3c14fb60	0.009093136
161	0x3df96924	0.12178257
162	0xbd63c1d0	-0.055604756
163	0xbd9883b4	-0.074469954
164	0xbda0f4ca	-0.0785919
165	0xbdb9ee6a	-0.09078677
166	0xbd158bb4	-0.036510184
167	0xbbf8aa20	-0.00758864
168	0xbde51bb4	-0.111869246
169	0xbdd35f18	-0.10320872
170	0xbdd42b76	-0.10359852
171	0xbd4085a8	-0.047002465
172	0x3c169310	0.009190336
173	0x3d570dd0	0.052503407
174	0xbdcfabba	-0.10140176
175	0xbc0e8ea0	-0.008700997
176	0x3dd927ca	0.10603292
177	0x3bacade0	0.005269751
178	0x3c0e0710	0.008668676
179	0x3de29668	0.11063844
180	0x3db804c0	0.08985281
181	0x3d049d48	0.032376558
182	0x3d4153a4	0.047198907
183	0x3df0a720	0.117506266
184	0x3ca96810	0.020679504
185	0x3dd5800c	0.10424814
186	0xbbf93da0	-0.007606223
187	0x3b85d280	0.0040839314
188	0xbdaaba48	-0.083363116
189	0xbde120ca	-0.10992582
190	0x3cda2fe8	0.026634172
191	0xbd341b20	-0.04397118

bn.weight f4 [64]
0	0x3e1d2618	0.15346563
1	0x3f0fa079	0.56104237
2	0x3e8d3340	0.27578163
3	0x3f4d121a	0.80105746
4	0x3e5d07f8	0.21585071
5	0x3e1c8ee0	0.15288877
6	0x3d03ed10	0.032208502
7	0x3e38e738	0.18056953
8	0x3ed7f5e6	0.42179793
9	0x3f3a1413	0.7268688
10	0x3f3d1e06	0.7387394
11	0x3f59d843	0.85095614
12	0x3f70e096	0.9409269
13	0x3f0978fd	0.5370024
14	0x3f36c475	0.7139352
15	0x3ef13c8a	0.471165
16	0x3f7a4d08	0.9777379
17	0x3f1d3abf	0.61417764
18	0x3f5f5d65	0.87251884
19	0x3e2bae10	0.16765618
20	0x3f2a488f	0.66516966
21	0x3f660eae	0.8986615
22	0x3f2b3b86	0.668877
23	0x3f30d6b9	0.6907764
24	0x3f34e76e	0.70665634
25	0x3f14aa64	0.58072495
26	0x3d524d00	0.051342964
27	0x3f70bd95	0.9403928
28	0x3f3ef3c2	0.74590695
29	0x3f58bd26	0.8466362
30	0x3d5c8e10	0.05384642
31	0x3ef908da	0.48639566
32	0x3f190484	0.59772515
33	0x3f25ddc8	0.64791536
34	0x3d9ceab8	0.076619565
35	0x3f47667a	0.7789074
36	0x3f36b7da	0.71374285
37	0x3f660415	0.8984998
38	0x3ee3154a	0.4435218
39	0x3f436f59	0.7634178
40	0x3f0d1af9	0.5511928
41	0x3e908b56	0.28231305
42	0x3f35c1b5	0.709987
43	0x3e761c84	0.24034315
44	0x3f6cb510	0.9246378
45	0x3e7d11d0	0.24713826
46	0x3e7f14e4	0.24910313
47	0x3eec9e20	0.4621439
48	0x3f10d809	0.56579643
49	0x3f15f569	0.5857759
50	0x3ee9515e	0.4556989
51	0x3ec4d92a	0.38446933
52	0x3ee75b14	0.45186675
53	0x3e61e2d0	0.22059178
54	0x3f7060da	0.93897784
55	0x3ef1fb52	0.47262055
56	0x3ef0e9fa	0.4705351
57	0x3f596906	0.8492588
58	0x3ef3f9c0	0.47651482
59	0x3f5fe0cb	0.8745238
60	0x3ece61a0	0.40308857
61	0x3efd893e	0.4951877
62	0x3f7d0f89	0.9885183
63	0x3ee01f7a	0.43774015

bn.bias f4 [64]
0	0x00000000	0.0
1	0x00000000	0.0
2	0x00000000	0.0
3	0x00000000	0.0
4	0x00000000	0.0
5	0x00000000	0.0
6	0x00000000	0.0
7	0x00000000	0.0
8	0x00000000	0.0
9	0x00000000	0.0
10	0x00000000	0.0
11	0x00000000	0.0
12	0x00000000	0.0
13	0x00000000	0.0
14	0x00000000	0.0
15	0x00000000	0.0
16	0x00000000	0.0
17	0x00000000	0.0
18	0x00000000	0.0
19	0x00000000	0.0
20	0x00000000	0.0
21	0x00000000	0.0
22	0x00000000	0.0
23	0x00000000	0.0
24	0x00000000	0.0
25	0x00000000	0.0
26	0x00000000	0.0
27	0x00000000	0.0
28	0x00000000	0.0
29	0x00000000	0.0
30	0x00000000	0.0
31	0x00000000	0.0
32	0x00000000	0.0
33	0x00000000	0.0
34	0x00000000	0.0
35	0x00000000	0.0
36	0x00000000	0.0
37	0x00000000	0.0
38	0x00000000	0.0
39	0x00000000	0.0
40	0x00000000	0.0
41	0x00000000	0.0
42	0x00000000	0.0
43	0x00000000	0.0
44	0x00000000	0.0
45	0x00000000	0.0
46	0x00000000	0.0
47	0x00000000	0.0
48	0x00000000	0.0
49	0x00000000	0.0
50	0x00000000	0.0
51	0x00000000	0.0
52	0x00000000	0.0
53	0x00000000	0.0
54	0x00000000	0.0
55	0x00000000	0.0
56	0x00000000	0.0
57	0x00000000	0.0
58	0x00000000	0.0
59	0x00000000	0.0
60	0x00000000	0.0
61	0x00000000	0.0
62	0x00000000	0.0
63	0x00000000	0.0

bn.running_mean f4 [64]
0	0x00000000	0.0
1	0x00000000	0.0
2	0x00000000	0.0
3	0x00000000	0.0
4	0x00000000	0.0
5	0x00000000	0.0
6	0x00000000	0.0
7	0x00000000	0.0
8	0x00000000	0.0
9	0x00000000	0.0
10	0x00000000	0.0
11	0x00000000	0.0
12	0x00000000	0.0
13	0x00000000	0.0
14	0x00000000	0.0
15	0x00000000	0.0
16	0x00000000	0.0
17	0x00000000	0.0
18	0x00000000	0.0
19	0x00000000	0.0
20	0x00000000	0.0
21	0x00000000	0.0
22	0x00000000	0.0
23	0x00000000	0.0
24	0x00000000	0.0
25	0x00000000	0.0
26	0x00000000	0.0
27	0x00000000	0.0
28	0x00000000	0.0
29	0x00000000	0.0
30	0x00000000	0.0
31	0x00000000	0.0
32	0x00000000	0.0
33	0x00000000	0.0
34	0x00000000	0.0
35	0x00000000	0.0
36	0x00000000	0.0
37	0x00000000	0.0
38	0x00000000	0.0
39	0x00000000	0.0
40	0x00000000	0.0
41	0x00000000	0.0
42	0x00000000	0.0
43	0x00000000	0.0
44	0x00000000	0.0
45	0x00000000	0.0
46	0x00000000	0.0
47	0x00000000	0.0
48	0x00000000	0.0
49	0x00000000	0.0
50	0x00000000	0.0
51	0x00000000	0.0
52	0x00000000	0.0
53	0x00000000	0.0
54	0x00000000	0.0
55	0x00000000	0.0
56	0x00000000	0.0
57	0x00000000	0.0
58	0x00000000	0.0
59	0x00000000	0.0
60	0x00000000	0.0
61	0x00000000	0.0
62	0x00000000	0.0
63	0x00000000	0.0

bn.running_var f4 [64]
0	0x3f800000	1.0
1	0x3f800000	1.0
2	0x3f800000	1.0
3	0x3f800000	1.0
4	0x3f800000	1.0
5	0x3f800000	1.0
6	0x3f800000	1.0
7	0x3f800000	1.0
8	0x3f800000	1.0
9	0x3f800000	1.0
10	0x3f800000	1.0
11	0x3f800000	1.0
12	0x3f800000	1.0
13	0x3f800000	1.0
14	0x3f800000	1.0
15	0x3f800000	1.0
16	0x3f800000	1.0
17	0x3f800000	1.0
18	0x3f800000	1.0
19	0x3f800000	1.0
20	0x3f800000	1.0
21	0x3f800000	1.0
22	0x3f800000	1.0
23	0x3f800000	1.0
24	0x3f800000	1.0
25	0x3f800000	1.0
26	0x3f800000	1.0
27	0x3f800000	1.0
28	0x3f800000	1.0
29	0x3f800000	1.0
30	0x3f800000	1.0
31	0x3f800000	1.0
32	0x3f800000	1.0
33	0x3f800000	1.0
34	0x3f800000	1.0
35	0x3f800000	1.0
36	0x3f800000	1.0
37	0x3f800000	1.0
38	0x3f800000	1.0
39	0x3f800000	1.0
40	0x3f800000	1.0
41	0x3f800000	1.0
42	0x3f800000	1.0
43	0x3f800000	1.0
44	0x3f800000	1.0
45	0x3f800000	1.0
46	0x3f800000	1.0
47	0x3f800000	1.0
48	0x3f800000	1.0
49	0x3f800000	1.0
50	0x3f800000	1.0
51	0x3f800000	1.0
52	0x3f800000	1.0
53	0x3f800000	1.0
54	0x3f800000	1.0
55	0x3f800000	1.0
56	0x3f800000	1.0
57	0x3f800000	1.0
58	0x3f800000	1.0
59	0x3f800000	1.0
60	0x3f800000	1.0
61	0x3f800000	1.0
62	0x3f800000	1.0
63	0x3f800000	1.0
